{
    "best_epoch": {
        "number": 199,
        "train_loss": 1.1318448019933096,
        "eval_loss": 1.19293
    },
    "history": {
        "train": [
            … "eval": [
            … "architecture": "OCR_ViTRNN(\n  (batch_norm): BatchNorm2d(3, eps=1e-05, momentum=0.1, affine=True, track_running_stats=True)\n  (encoder): ViTModel(\n    (embeddings): ViTEmbeddings(\n      (patch_embeddings): ViTPatchEmbeddings(\n        (projection): Conv2d(3, 128, kernel_size=(32, 32), stride=(32, 32))\n      )\n      (dropout): Dropout(p=0.1, inplace=False)\n    )\n    (encoder): ViTEncoder(\n      (layer): ModuleList(\n        (0): ViTLayer(\n          (attention): ViTAttention(\n            (attention): ViTSelfAttention(\n              (query): Linear(in_features=128, out_features=128, bias=False)\n              (key): Linear(in_features=128, out_features=128, bias=False)\n              (value): Linear(in_features=128, out_features=128, bias=False)\n              (dropout): Dropout(p=0.0, inplace=False)\n            )\n            (output): ViTSelfOutput(\n              (dense): Linear(in_features=128, out_features=128, bias=True)\n              (dropout): Dropout(p=0.1, inplace=False)\n            )\n          )\n          (intermediate): ViTIntermediate(\n            (dense): Linear(in_features=128, out_features=512, bias=True)\n            (intermediate_act_fn): GELUActivation()\n          )\n          (output): ViTOutput(\n            (dense): Linear(in_features=512, out_features=128, bias=True)\n            (dropout): Dropout(p=0.1, inplace=False)\n          )\n          (layernorm_before): LayerNorm((128,), eps=1e-12, elementwise_affine=True)\n          (layernorm_after): LayerNorm((128,), eps=1e-12, elementwise_affine=True)\n        )\n        (1): ViTLayer(\n          (attention): ViTAttention(\n            (attention): ViTSelfAttention(\n              (query): Linear(in_features=128, out_features=128, bias=False)\n              (key): Linear(in_features=128, out_features=128, bias=False)\n              (value): Linear(in_features=128, out_features=128, bias=False)\n              (dropout): Dropout(p=0.0, inplace=False)\n            )\n            (output): ViTSelfOutput(\n              (dense): Linear(in_features=128, out_features=128, bias=True)\n              (dropout): Dropout(p=0.1, inplace=False)\n            )\n          )\n          (intermediate): ViTIntermediate(\n            (dense): Linear(in_features=128, out_features=512, bias=True)\n            (intermediate_act_fn): GELUActivation()\n          )\n          (output): ViTOutput(\n            (dense): Linear(in_features=512, out_features=128, bias=True)\n            (dropout): Dropout(p=0.1, inplace=False)\n          )\n          (layernorm_before): LayerNorm((128,), eps=1e-12, elementwise_affine=True)\n          (layernorm_after): LayerNorm((128,), eps=1e-12, elementwise_affine=True)\n        )\n        (2): ViTLayer(\n          (attention): ViTAttention(\n            (attention): ViTSelfAttention(\n              (query): Linear(in_features=128, out_features=128, bias=False)\n              (key): Linear(in_features=128, out_features=128, bias=False)\n              (value): Linear(in_features=128, out_features=128, bias=False)\n              (dropout): Dropout(p=0.0, inplace=False)\n            )\n            (output): ViTSelfOutput(\n              (dense): Linear(in_features=128, out_features=128, bias=True)\n              (dropout): Dropout(p=0.1, inplace=False)\n            )\n          )\n          (intermediate): ViTIntermediate(\n            (dense): Linear(in_features=128, out_features=512, bias=True)\n            (intermediate_act_fn): GELUActivation()\n          )\n          (output): ViTOutput(\n            (dense): Linear(in_features=512, out_features=128, bias=True)\n            (dropout): Dropout(p=0.1, inplace=False)\n          )\n          (layernorm_before): LayerNorm((128,), eps=1e-12, elementwise_affine=True)\n          (layernorm_after): LayerNorm((128,), eps=1e-12, elementwise_affine=True)\n        )\n        (3): ViTLayer(\n          (attention): ViTAttention(\n            (attention): ViTSelfAttention(\n              (query): Linear(in_features=128, out_features=128, bias=False)\n              (key): Linear(in_features=128, out_features=128, bias=False)\n              (value): Linear(in_features=128, out_features=128, bias=False)\n              (dropout): Dropout(p=0.0, inplace=False)\n            )\n            (output): ViTSelfOutput(\n              (dense): Linear(in_features=128, out_features=128, bias=True)\n              (dropout): Dropout(p=0.1, inplace=False)\n            )\n          )\n          (intermediate): ViTIntermediate(\n            (dense): Linear(in_features=128, out_features=512, bias=True)\n            (intermediate_act_fn): GELUActivation()\n          )\n          (output): ViTOutput(\n            (dense): Linear(in_features=512, out_features=128, bias=True)\n            (dropout): Dropout(p=0.1, inplace=False)\n          )\n          (layernorm_before): LayerNorm((128,), eps=1e-12, elementwise_affine=True)\n          (layernorm_after): LayerNorm((128,), eps=1e-12, elementwise_affine=True)\n        )\n        (4): ViTLayer(\n          (attention): ViTAttention(\n            (attention): ViTSelfAttention(\n              (query): Linear(in_features=128, out_features=128, bias=False)\n              (key): Linear(in_features=128, out_features=128, bias=False)\n              (value): Linear(in_features=128, out_features=128, bias=False)\n              (dropout): Dropout(p=0.0, inplace=False)\n            )\n            (output): ViTSelfOutput(\n              (dense): Linear(in_features=128, out_features=128, bias=True)\n              (dropout): Dropout(p=0.1, inplace=False)\n            )\n          )\n          (intermediate): ViTIntermediate(\n            (dense): Linear(in_features=128, out_features=512, bias=True)\n            (intermediate_act_fn): GELUActivation()\n          )\n          (output): ViTOutput(\n            (dense): Linear(in_features=512, out_features=128, bias=True)\n            (dropout): Dropout(p=0.1, inplace=False)\n          )\n          (layernorm_before): LayerNorm((128,), eps=1e-12, elementwise_affine=True)\n          (layernorm_after): LayerNorm((128,), eps=1e-12, elementwise_affine=True)\n        )\n        (5): ViTLayer(\n          (attention): ViTAttention(\n            (attention): ViTSelfAttention(\n              (query): Linear(in_features=128, out_features=128, bias=False)\n              (key): Linear(in_features=128, out_features=128, bias=False)\n              (value): Linear(in_features=128, out_features=128, bias=False)\n              (dropout): Dropout(p=0.0, inplace=False)\n            )\n            (output): ViTSelfOutput(\n              (dense): Linear(in_features=128, out_features=128, bias=True)\n              (dropout): Dropout(p=0.1, inplace=False)\n            )\n          )\n          (intermediate): ViTIntermediate(\n            (dense): Linear(in_features=128, out_features=512, bias=True)\n            (intermediate_act_fn): GELUActivation()\n          )\n          (output): ViTOutput(\n            (dense): Linear(in_features=512, out_features=128, bias=True)\n            (dropout): Dropout(p=0.1, inplace=False)\n          )\n          (layernorm_before): LayerNorm((128,), eps=1e-12, elementwise_affine=True)\n          (layernorm_after): LayerNorm((128,), eps=1e-12, elementwise_affine=True)\n        )\n      )\n    )\n    (layernorm): LayerNorm((128,), eps=1e-12, elementwise_affine=True)\n  )\n  (decoder): BiLSTMImageDecoder(\n    (norm): BatchNorm1d(65, eps=1e-05, momentum=0.1, affine=True, track_running_stats=True)\n    (rnn): LSTM(128, 128, num_layers=2, dropout=0.1, bidirectional=True)\n    (out_proj): Linear(in_features=256, out_features=65, bias=True)\n  )\n  (softmax): LogSoftmax(dim=-1)\n)"
}