{
    "best_epoch": {
        "number": 99,
        "train_loss": 0.09294252668189097,
        "eval_loss": 0.11361
    },
    "history": {
        "train": [
            … "eval": [
            … "architecture": "OCR_CRNN(\n  (encoder): CNNImageEncoderV2(\n    (layers): Sequential(\n      (0): ConvBlock(\n        (bn): BatchNorm2d(3, eps=1e-05, momentum=0.1, affine=True, track_running_stats=True)\n        (conv): Conv2d(3, 32, kernel_size=(9, 9), stride=(1, 1), padding=(4, 4), bias=False)\n        (pooling): MaxPool2d(kernel_size=2, stride=2, padding=0, dilation=1, ceil_mode=False)\n        (activation): Hardswish()\n      )\n      (1): ConvBlock(\n        (bn): BatchNorm2d(32, eps=1e-05, momentum=0.1, affine=True, track_running_stats=True)\n        (conv): Conv2d(32, 64, kernel_size=(7, 7), stride=(1, 1), padding=(3, 3), bias=False)\n        (pooling): MaxPool2d(kernel_size=2, stride=2, padding=0, dilation=1, ceil_mode=False)\n        (activation): Hardswish()\n      )\n      (2): ConvBlock(\n        (bn): BatchNorm2d(64, eps=1e-05, momentum=0.1, affine=True, track_running_stats=True)\n        (conv): Conv2d(64, 128, kernel_size=(5, 5), stride=(1, 1), padding=(2, 2), bias=False)\n        (pooling): MaxPool2d(kernel_size=(2, 1), stride=(2, 1), padding=0, dilation=1, ceil_mode=False)\n        (activation): Hardswish()\n      )\n      (3): ConvBlock(\n        (bn): BatchNorm2d(128, eps=1e-05, momentum=0.1, affine=True, track_running_stats=True)\n        (conv): Conv2d(128, 128, kernel_size=(3, 3), stride=(1, 1), padding=(1, 1), bias=False)\n        (pooling): MaxPool2d(kernel_size=(2, 1), stride=(2, 1), padding=0, dilation=1, ceil_mode=False)\n        (activation): Hardswish()\n      )\n      (4): ConvBlock(\n        (bn): BatchNorm2d(128, eps=1e-05, momentum=0.1, affine=True, track_running_stats=True)\n        (conv): Conv2d(128, 128, kernel_size=(3, 3), stride=(1, 1), padding=(1, 1), bias=False)\n        (pooling): MaxPool2d(kernel_size=(2, 1), stride=(2, 1), padding=0, dilation=1, ceil_mode=False)\n        (activation): Hardswish()\n      )\n      (5): ConvBlock(\n        (bn): BatchNorm2d(128, eps=1e-05, momentum=0.1, affine=True, track_running_stats=True)\n        (conv): Conv2d(128, 128, kernel_size=(3, 3), stride=(1, 1), padding=(1, 1), bias=False)\n        (pooling): MaxPool2d(kernel_size=(2, 1), stride=(2, 1), padding=0, dilation=1, ceil_mode=False)\n        (activation): Hardswish()\n      )\n    )\n    (dropout): Dropout(p=0.1, inplace=False)\n    (out_net): Sequential(\n      (0): LayerNorm((128,), eps=1e-05, elementwise_affine=True)\n      (1): Linear(in_features=128, out_features=128, bias=True)\n    )\n  )\n  (decoder): BiLSTMImageDecoder(\n    (norm): BatchNorm1d(64, eps=1e-05, momentum=0.1, affine=True, track_running_stats=True)\n    (rnn): LSTM(128, 128, num_layers=2, dropout=0.1, bidirectional=True)\n    (out_proj): Linear(in_features=256, out_features=65, bias=True)\n  )\n  (softmax): LogSoftmax(dim=-1)\n)"
}