{
    "best_epoch": {
        "number": 94,
        "train_loss": 0.12464742079565796,
        "eval_loss": 0.16665
    },
    "history": {
        "train": [
            … "eval": [
            … "architecture": "OCR_ResNetRNN(\n  (encoder): ResNetImageEncoder(\n    (pre_bath_norm): BatchNorm2d(3, eps=1e-05, momentum=0.1, affine=True, track_running_stats=True)\n    (model): Sequential(\n      (0): Conv2d(3, 64, kernel_size=(7, 7), stride=(2, 2), padding=(3, 3), bias=False)\n      (1): BatchNorm2d(64, eps=1e-05, momentum=0.1, affine=True, track_running_stats=True)\n      (2): ReLU(inplace=True)\n      (3): MaxPool2d(kernel_size=3, stride=2, padding=1, dilation=1, ceil_mode=False)\n      (4): Sequential(\n        (0): BasicBlock(\n          (conv1): Conv2d(64, 64, kernel_size=(3, 3), stride=(1, 1), padding=(1, 1), bias=False)\n          (bn1): BatchNorm2d(64, eps=1e-05, momentum=0.1, affine=True, track_running_stats=True)\n          (relu): ReLU(inplace=True)\n          (conv2): Conv2d(64, 64, kernel_size=(3, 3), stride=(1, 1), padding=(1, 1), bias=False)\n          (bn2): BatchNorm2d(64, eps=1e-05, momentum=0.1, affine=True, track_running_stats=True)\n        )\n        (1): BasicBlock(\n          (conv1): Conv2d(64, 64, kernel_size=(3, 3), stride=(1, 1), padding=(1, 1), bias=False)\n          (bn1): BatchNorm2d(64, eps=1e-05, momentum=0.1, affine=True, track_running_stats=True)\n          (relu): ReLU(inplace=True)\n          (conv2): Conv2d(64, 64, kernel_size=(3, 3), stride=(1, 1), padding=(1, 1), bias=False)\n          (bn2): BatchNorm2d(64, eps=1e-05, momentum=0.1, affine=True, track_running_stats=True)\n        )\n      )\n      (5): Sequential(\n        (0): BasicBlock(\n          (conv1): Conv2d(64, 128, kernel_size=(3, 3), stride=(2, 2), padding=(1, 1), bias=False)\n          (bn1): BatchNorm2d(128, eps=1e-05, momentum=0.1, affine=True, track_running_stats=True)\n          (relu): ReLU(inplace=True)\n          (conv2): Conv2d(128, 128, kernel_size=(3, 3), stride=(1, 1), padding=(1, 1), bias=False)\n          (bn2): BatchNorm2d(128, eps=1e-05, momentum=0.1, affine=True, track_running_stats=True)\n          (downsample): Sequential(\n            (0): Conv2d(64, 128, kernel_size=(1, 1), stride=(2, 2), bias=False)\n            (1): BatchNorm2d(128, eps=1e-05, momentum=0.1, affine=True, track_running_stats=True)\n          )\n        )\n        (1): BasicBlock(\n          (conv1): Conv2d(128, 128, kernel_size=(3, 3), stride=(1, 1), padding=(1, 1), bias=False)\n          (bn1): BatchNorm2d(128, eps=1e-05, momentum=0.1, affine=True, track_running_stats=True)\n          (relu): ReLU(inplace=True)\n          (conv2): Conv2d(128, 128, kernel_size=(3, 3), stride=(1, 1), padding=(1, 1), bias=False)\n          (bn2): BatchNorm2d(128, eps=1e-05, momentum=0.1, affine=True, track_running_stats=True)\n        )\n      )\n    )\n    (head): Sequential(\n      (0): ConvBlock(\n        (bn): BatchNorm2d(128, eps=1e-05, momentum=0.1, affine=True, track_running_stats=True)\n        (conv): Conv2d(128, 128, kernel_size=(3, 3), stride=(1, 1), padding=(1, 1), bias=False)\n        (pooling): MaxPool2d(kernel_size=(2, 1), stride=(2, 1), padding=0, dilation=1, ceil_mode=False)\n        (activation): Hardswish()\n      )\n      (1): ConvBlock(\n        (bn): BatchNorm2d(128, eps=1e-05, momentum=0.1, affine=True, track_running_stats=True)\n        (conv): Conv2d(128, 128, kernel_size=(3, 3), stride=(1, 1), padding=(1, 1), bias=False)\n        (pooling): MaxPool2d(kernel_size=(2, 1), stride=(2, 1), padding=0, dilation=1, ceil_mode=False)\n        (activation): Hardswish()\n      )\n      (2): ConvBlock(\n        (bn): BatchNorm2d(128, eps=1e-05, momentum=0.1, affine=True, track_running_stats=True)\n        (conv): Conv2d(128, 128, kernel_size=(3, 3), stride=(1, 1), padding=(1, 1), bias=False)\n        (pooling): MaxPool2d(kernel_size=(2, 1), stride=(2, 1), padding=0, dilation=1, ceil_mode=False)\n        (activation): Hardswish()\n      )\n    )\n    (dropout): Dropout(p=0.1, inplace=False)\n    (out_net): Sequential(\n      (0): LayerNorm((128,), eps=1e-05, elementwise_affine=True)\n      (1): Linear(in_features=128, out_features=128, bias=True)\n    )\n  )\n  (decoder): BiLSTMImageDecoder(\n    (norm): LayerNorm((128,), eps=1e-05, elementwise_affine=True)\n    (rnn): LSTM(128, 128, num_layers=2, dropout=0.1, bidirectional=True)\n    (out_proj): Linear(in_features=256, out_features=65, bias=True)\n  )\n  (softmax): LogSoftmax(dim=-1)\n)"
}